Assignments/assign_7/pinnModel.pt (torch, 24477 bytes, 12 tensors)

weight f4 [30, 2]
-0.055542443 0.6138892 -0.14078958 0.68425643 0.28732452 0.3624729 0.31236517 -0.21774933
-0.108491436 0.014004041 -0.6274897 0.7887163 0.09957715 -0.82561606 -0.5208373 -0.47911167
0.07024467 -0.43012372 -0.7606809 -0.28037965 -0.0769758 0.23202875 0.3333336 0.6795842
-0.5804908 -0.3664626 -0.6391725 -0.36658323 -0.6932738 0.6575799 -0.57999116 0.21644892
0.25168338 -0.3780128 0.5561379 0.6493048 -0.36754 -0.395607 -0.42192766 -0.63391393
-0.30950058 0.09255554 -0.43368518 0.7470362 -0.026895331 -0.26822928 -0.7501327 -0.17666405
0.68805337 -0.2612963 0.29407516 0.5637895 -0.53770155 -0.55454236 0.4847232 0.42664802
-0.45819145 0.6535383 -0.6908329 0.034503672
00000000: 7980 63bd d827 1d3f 252b 10be 6e2b 2f3f
00000010: 331c 933e 0c96 b93e 54ee 9f3e aef9 5ebe
00000020: c230 debd 3571 653c 2aa3 20bf 50e9 493f
00000030: 1bef cb3d 935b 53bf 9855 05bf 204e f5be
00000040: 70dc 8f3d 2d39 dcbe fcbb 42bf ec8d 8fbe
00000050: 7da5 9dbd f298 6d3e b4aa aa3e 3bf9 2d3f
00000060: 0c9b 14bf fca0 bbbe cfa0 23bf ccb0 bbbe
00000070: 647a 31bf 2857 283f 4d7a 14bf c9a4 5d3e
00000080: a5dc 803e e58a c1be 0e5f 0e3f d738 263f
00000090: 342e bcbe 008d cabe e706 d8be 2f48 22bf
000000a0: dc76 9ebe c28d bd3d fc0b debe c43d 3f3f
000000b0: 9953 dcbc 5955 89be b208 40bf 6ce7 34be
000000c0: 4424 303f a1c8 85be 0591 963e 8254 103f
000000d0: cfa6 09bf 7df6 0dbf a42d f83e 9c71 da3e
000000e0: 1298 eabe 494e 273f 6dda 30bf b953 0d3d

bias f4 [30]
-0.20857237 -0.07186506 0.16547549 0.6576545 0.13802208 0.11216928 0.5437391 -0.62310874
0.3090324 0.46714592 0.71437645 -0.54062057 0.40087885 0.80565846 -0.6119327 -0.64933777
-0.34517696 -0.37531388 -0.18028444 0.3433995 -0.11004716 0.25415897 -0.6582724 -0.14087854
0.22958626 0.4801636 -0.28665876 0.581934 -0.36409006 0.44783923
00000000: ff93 55be fd2d 93bd 6872 293e 0c5c 283f
00000010: a955 0d3e 02b9 e53d 7c32 0b3f 0e84 1fbf
00000020: 7f39 9e3e c02d ef3e 60e1 363f 1c66 0abf
00000030: fe3f cd3e a23f 4e3f 9fa7 1cbf 003b 26bf
00000040: 09bb b0be 2429 c0be 7c9c 38be 0fd2 af3e
00000050: 6860 e1bd 2021 823e 8a84 28bf 7742 10be
00000060: a918 6b3e 01d8 f53e f0c4 92be a0f9 143f
00000070: 036a babe 2f4b e53e

weight f4 [30, 30]
0.14749448 -0.008251908 0.2167654 0.05973075 0.0036248812 0.080360025 0.00856608 -0.06470506
-0.1842472 -0.17999828 -0.033704497 0.09244404 -0.21198311 0.005799827 -0.102250576 -0.08055828
-0.0640576 0.039280683 -0.014691011 0.079662785 -0.08309298 -0.13789076 0.12741327 -0.12248067
0.1078011 0.20378229 -0.024027435 0.14757234 -0.11098977 0.1106134 0.07514536 0.14741711
0.14562422 -0.17926511 -0.029578766 0.09803247 -0.17483014 0.02171551 -0.1913991 -0.1742068
-0.086227246 -0.11155469 -0.097693205 -0.13187021 0.094692044 -0.15054023 0.15271713 0.1336976
0.0600952 0.019729039 0.09355031 0.028289791 0.1543034 -0.12750573 0.189719 0.0041426606
0.08629618 -0.14593214 -0.035565797 -0.23495375 -0.0025404885 0.0034434332 -0.040778313 -0.11987194
0.11803657 -0.050021842 -0.15860556 0.12222314 -0.18942124 -0.08829849 0.036832057 0.21170029
-0.20495777 -0.22920612 -0.07473831 -0.06176991 -0.077613786 0.066986404 -0.16749027 -0.23634253
-0.0024474694 0.18348916 -0.1269571 0.18478824 -0.17389661 0.15232882 0.13278069 -0.20714721
-0.060281113 -0.10712225 0.29340458 0.030093292 0.24441579 -0.028118392 -0.15425788 0.17040741
-0.0891027 -0.20951661 0.05460245 -0.084249474 0.09667176 0.017050376 -0.13995257 0.010287381
-0.009464389 0.07446568 -0.19974077 -0.015561951 0.053581275 -0.16685972 -0.07205776 0.32861248
0.1064706 -0.119753174 -0.07798995 0.07625192 -0.12838736 -0.051947366 -0.121957816 -0.09818333
0.06272157 -0.09009268 -0.023945812 0.17319706 0.14365335 -0.039892104 0.12975425 -0.10265599
0.24853036 0.1567624 -0.13675144 0.0580074 0.07180995 0.1962904 -0.18248421 -0.09117751
0.15689015 -0.041189753 -0.14937858 0.06821948 -0.016789906 -0.08953412 0.09220883 0.05202294
0.18761553 0.00806014 -0.003895014 0.17854682 -0.21150205 -0.04273226 0.21702722 0.2688054
0.08109079 -0.05419777 -0.10866974 0.28243816 -0.1572145 -0.10980477 -0.26262763 0.2551706
-0.021830074 0.10503913 0.023321802 0.121931225 0.04022288 0.09640593 -0.26070058 -0.110870495
0.0688223 0.025323132 0.23785394 0.24773656 0.010180697 0.1948327 -0.21411172 -0.1868683
0.051329993 -0.14312318 0.02903452 0.112415425 -0.03814537 0.091390945 -0.13619557 -0.11289083
0.1971465 0.21978846 0.16347994 0.03944416 -0.11635539 0.06278948 0.23764321 -0.04215966
-0.0031455255 0.07457853 -0.025500339 0.12744376 -0.22212921 -0.14197327 0.069622114 0.16534548
0.020236753 0.12216462 -0.19364192 0.115727484 -0.10121783 0.19208853 0.08476271 -0.027250342
-0.016813627 0.18251292 0.26007888 -0.044439357 0.20504978 0.244876 0.12669992 0.12757392
-0.08759838 0.0012049369 -0.17928916 -0.10777453 -0.039348464 -0.0073895724 0.19828592 -0.09885608
0.16420776 -0.0006794113 -0.08681551 -0.039776072 0.1146129 0.0064753806 -0.04865317 0.12702504
-0.10003957 0.19605102 -0.10805735 0.13441707 0.01729511 0.19535437 0.052722037 0.17515853
0.23294534 0.1418346 0.08698284 -0.118774414 0.16555917 0.2570657 -0.113893285 -0.15236728
-0.13991696 -0.15259875 0.07095679 0.05164346 0.026528267 0.10832067 0.016061872 -0.036903888
00000000: cb08 173e 0333 07bc c0f7 5d3e 3ba8 743d
00000010: 6a8f 6d3b cc93 a43d be58 0c3c 1684 84bd
00000020: 4cab 3cbe 7851 38be ba0d 0abd 4d53 bd3d
00000030: 1a12 59be 7a0c be3b c068 d1bd bdfb a4bd
00000040: a230 83bd c8e4 203d 91b2 70bc 3e26 a33d
00000050: a72c aabd 3c33 0dbe a078 023e 25d7 fabd
00000060: d3c6 dc3d 4eac 503e 2fd5 c4bc 341d 173e
00000070: 9b4e e3bd 4789 e23d cfe5 993d 83f4 163e
00000080: 841e 153e 4691 37be 2b4f f2bc 3fc5 c83d
00000090: ac06 33be bae4 b13c 20fe 43be 4463 32be
000000a0: e997 b0bd c976 e4bd 6013 c8bd fc08 07be
000000b0: e7ed c13d 3827 1abe e161 1c3e 06e8 083e
000000c0: 6226 763d cb9e a13c 4e97 bf3d febf e73c
000000d0: b601 1e3e dd90 02be b345 423e 28bf 873b
000000e0: 0dbc b03d 3c6f 15be 71ad 11bd b797 70be
000000f0: 537e 26bb 39ab 613b 2907 27bd 6b7f f5bd
00000100: 28bd f13d b4e3 4cbd 7f69 22be 2050 fa3d
00000110: a4f7 41be d7d5 b4bd 36dd 163d f6c7 583e
00000120: 73e0 51be 02b5 6abe 6610 99bd 7202 7dbd
00000130: faf3 9ebd 2b30 893d 9282 2bbe c703 72be
00000140: b965 20bb 95e4 3b3e 0b01 02be 2139 3d3e
00000150: f411 32be 16fc 1b3e a9f7 073e 661e 54be
00000160: 54e9 76bd e962 dbbd 2039 963e 3586 f63c
00000170: 2248 7a3e 8b58 e6bc c7f5 1dbe 487f 2e3e
00000180: 7a7b b6bd 868b 56be d2a6 5f3d fd8a acbd
00000190: d8fb c53d 3bad 8b3c ba4f 0fbe 678c 283c
000001a0: 8610 1bbc 7681 983d d888 4cbe 8ef7 7ebc
000001b0: 0a78 5b3d 46dd 2abe 0593 93bd e53f a83e
000001c0: 420d da3d 2741 f5bd 32b9 9fbd f729 9c3d
000001d0: fa77 03be c3c6 54bd 05c5 f9bd 5714 c9bd
000001e0: 2b74 803d 8382 b8bd 022a c4bc 925a 313e
000001f0: dd19 133e e765 23bd 4cde 043e 4e3d d2bd
00000200: be7e 7e3e 5386 203e 9208 0cbe 2b99 6d3d
00000210: 1811 933d 5a00 493e 24dd 3abe 46bb babd
00000220: d0a7 203e 96b6 28bd b3f6 18be a8b6 8b3d
00000230: fc8a 89bc aa5d b7bd fcd7 bc3d 0216 553d
00000240: 491e 403e ad0e 043c 7e43 7fbb fad4 363e
00000250: fe93 58be 0608 2fbd 623c 5e3e dda0 893e
00000260: ee12 a63d 7bfe 5dbd 3e8e debd bc9b 903e
00000270: d6fc 20be 53e1 e0bd 2177 86be b9a5 823e
00000280: fcd4 b2bc c11e d73d 5d0d bf3c 14b7 f93d
00000290: bfc0 243d 7970 c53d 8c7a 85be 1210 e3bd
000002a0: b5f2 8c3d 7572 cf3c fc8f 733e a7ae 7d3e
000002b0: f0cc 263c 3982 473e 1a40 5bbe 675a 3fbe
000002c0: 663f 523d e28e 12be cdd9 ed3c 0f3a e63d
000002d0: 523e 1cbd 2d2b bb3d da76 0bbe 4f33 e7bd
000002e0: c6e0 493e 3a10 613e 4967 273e 3390 213d
000002f0: bc4b eebd c597 803d be58 733e 9caf 2cbd
00000300: 2925 4ebb a1bc 983d 16e6 d0bc 9e80 023e
00000310: d775 63be 7161 11be 0a96 8e3d 5350 293e
00000320: 8cc7 a53c 7231 fa3d 114a 46be 8802 ed3d
00000330: 4b4b cfbd dbb2 443e 1298 ad3d 1c3c dfbc
00000340: bbbc 89bc abe4 3a3e 0f29 853e 0b06 36bd
00000350: 92f8 513e c6c0 7a3e a0bd 013e bda2 023e
00000360: c866 b3bd f9ee 9d3a 9497 37be e5b8 dcbd
00000370: db2b 21bd 3a24 f2bb 770b 4b3e 0e75 cabd
00000380: 1426 283e 851a 32ba 55cc b1bd 3cec 22bd
00000390: 2bba ea3d 6e2f d43b 8c48 47bd da12 023e
000003a0: 8ce1 ccbd 99c1 483e 2c4d ddbd a1a4 093e
000003b0: 79ae 8d3c fa0a 483e 10f3 573d c25c 333e
000003c0: 3989 6e3e 173d 113e 0f24 b23d 0040 f3bd
000003d0: 5888 293e 1e9e 833e e240 e9bd 2b06 1cbe
000003e0: 6446 0fbe d942 1cbe cb51 913d 1888 533d
000003f0: cf51 d93c 3ad7 dd3d 3094 833c 8828 17bd

bias f4 [30]
-0.22355385 -0.032508813 -0.07063784 -0.016836176 -0.12434659 0.15995863 0.060779873 0.12195204
0.21692187 0.039485425 -0.03204284 0.15418611 -0.010225222 -0.24290487 0.13933317 0.08905207
0.08633273 0.16972968 -0.2527759 0.11994987 0.11208335 -0.012157642 0.12043767 0.07592622
-0.08671105 0.02396938 0.01580257 0.15804099 0.12458751 0.009398578
00000000: 4deb 64be f627 05bd 92aa 90bd 05ec 89bc
00000010: 6da9 febd 32cc 233e 51f4 783d fec1 f93d
00000020: c420 5e3e 78bb 213d 5a3f 03bd f7e2 1d3e
00000030: b187 27bc 0ebc 78be 5bad 0e3e ef60 b63d
00000040: 37cf b03d 9ecd 2d3e d86b 81be 47a8 f53d
00000050: f58b e53d d930 47bc 06a8 f63d 357f 9b3d
00000060: 9095 b1bd 6f5b c43c 6474 813c 7fd5 213e
00000070: bd27 ff3d 7efc 193c

weight f4 [30, 30]
0.17361623 0.17375538 0.01791593 0.10211736 -0.021373473 -0.15380837 -0.23951198 -0.0760795
-0.19644965 0.07368032 -0.18660976 0.010399627 0.20607883 0.20960318 -0.14802617 -0.052178387
0.13728787 -0.07790158 0.23049346 0.11227559 0.09094829 0.013000063 -0.2639723 0.11074005
-0.21850455 -0.16410275 -0.14345096 -0.03836387 -0.038839914 0.07908399 0.21310231 0.035082407
-0.06797545 -0.09748969 0.060609996 -0.14403537 -0.020227902 -0.0073621115 -0.18138376 -0.12643512
-0.19243322 0.04862665 0.08577434 0.10667988 -0.049082287 -0.16501024 0.016092569 0.10144764
0.09434447 -0.20944382 -0.07198772 0.0744656 -0.20416185 0.12991491 -0.21807896 0.03231275
-0.12685351 -0.17458422 0.104783475 0.06408112 0.17640786 -0.21897137 -0.03461027 0.1734917
-0.08893828 -0.088244766 0.2472109 0.24319834 0.25487235 0.1584924 -0.16829862 0.15687332
0.07505247 -0.064386874 0.22484224 -0.06910949 0.17567177 0.10837168 -0.23716612 0.22370031
-0.05621427 -0.03141578 -0.20944218 0.13414666 0.014673276 -0.24570858 0.00788431 -0.18875276
0.2696387 0.06845445 0.12923883 0.18728966 0.1716315 -0.058681607 -0.06721829 -0.14051005
-0.14025533 -0.108383365 0.03747738 -0.053796787 -0.016652271 0.21513407 -0.09523297 0.124359965
-0.19731753 0.26556516 0.19463736 0.1446803 0.28191575 -0.18310978 0.15218182 0.18611261
-0.21605042 -0.10256006 -0.16273746 0.16853733 0.12224474 -0.11431985 -0.18336308 0.20282054
0.10200213 0.029726306 -0.023203073 -0.2202304 0.047444675 -0.20558248 -0.113035925 -0.22152974
-0.20384835 -0.09094656 -0.12821218 0.004545002 -0.123017535 0.17505217 -0.020416513 0.14066145
0.19362703 0.113181345 -0.101416126 -0.053496707 0.046381295 0.05192421 0.054390367 0.089525834
-0.12049865 0.054216642 0.028099904 -0.11134745 -0.10087911 0.14127594 0.034001168 -0.24704288
-0.054498315 -0.13315153 0.19059166 -0.060943995 -0.13141623 -0.17208356 0.129237 0.025220232
0.20027712 0.009649603 -0.20748857 -0.14857262 0.06965983 0.060913827 -0.1140526 -0.17568442
-0.28569075 0.12993439 -0.10308087 -0.045880217 0.2576434 -0.13581039 0.12458394 -0.081571914
0.13886406 -0.18120624 0.0937107 0.028475096 0.21018349 -0.050026804 -0.16421281 -0.045162577
0.06313819 -0.2167309 -0.09516136 -0.1290851 -0.14221972 -0.024038263 0.047159947 0.14592782
-0.008123156 0.131946 -0.08088644 -0.10903286 -0.026049705 -0.18164597 0.13977088 -0.19499478
-0.08566638 0.04439725 0.17066471 0.1904824 0.08717121 0.06352526 -0.09401971 -0.23329327
-0.079925 0.08019427 -0.001420177 -0.09364254 0.0020148552 -0.09916438 -0.07194025 -0.18129803
0.08092825 -0.09031769 -0.016034797 0.14064807 0.1603683 0.022073124 -0.22602713 0.15946178
0.026193291 0.010051437 0.099769294 -0.069000125 0.092742436 0.11096325 0.10515954 0.20450316
-0.039825127 -0.11554581 0.09660061 -0.0074010068 0.11411772 -0.07528776 0.09138254 0.005074626
0.1115916 -0.06177623 0.054795478 0.1890115 0.025622375 -0.27633622 -0.20038888 -0.08139694
0.10949763 -0.11015138 -0.12736735 -0.020712353 0.07549087 0.113903984 -0.10630494 -0.21991545
00000000: 74c8 313e eeec 313e 6ec4 923c e822 d13d
00000010: 6c17 afbc f17f 1dbe a142 75be 92cf 9bbd
00000020: 192a 49be b5e5 963d a116 3fbe 3263 2a3c
00000030: 5406 533e 37a2 563e 2c94 17be 01b9 55bd
00000040: 3195 0c3e dd8a 9fbd 7a06 6c3e bff0 e53d
00000050: 1943 ba3d 37fe 543c 6127 87be aecb e23d
00000060: a8bf 5fbe 8d0a 28be cfe4 12be 6f23 1dbd
00000070: 9a16 1fbd c9f6 a13d 7e37 5a3e 92b2 0f3d
00000080: b636 8bbd ada8 c7bd 3042 783d 027e 13be
00000090: fcb4 a5bc de3d f1bb aabc 39be 3578 01be
000000a0: 370d 45be bd2c 473d 75aa af3d fb7a da3d
000000b0: 820a 49bd 72f8 28be 90d4 833c c8c3 cf3d
000000c0: ac37 c13d 7178 56be 4c6e 93bd 6c81 983d
000000d0: ce0f 51be 6a08 053e 1750 5fbe 605a 043d
000000e0: e3e5 01be 35c6 32be b898 d63d f63c 833d
000000f0: 43a4 343e 083a 60be 80c3 0dbd cfa7 313e
00000100: 4625 b6bd acb9 b4bd db24 7d3e fc08 793e
00000110: a17e 823e d54b 223e 7956 2cbe 66a3 203e
00000120: 1cb5 993d 44dd 83bd 0b3d 663e 4789 8dbd
00000130: 4de3 333e f9f1 dd3d addb 72be b211 653e
00000140: ef40 66bd d5ad 00bd 0378 56be be5d 093e
00000150: 2e68 703c 089b 7bbe 312d 013c 6748 41be
00000160: 150e 8a3e d931 8c3d 2f57 043e dcc8 3f3e
00000170: 2bc0 2f3e 205c 70bd bea9 89bd dee1 0fbe
00000180: 189f 0fbe 19f8 ddbd e281 193d 055a 5cbd
00000190: 586a 88bc 1b4c 5c3e 8109 c3bd 70b0 fe3d
000001a0: 9b0d 4abe 28f8 873e 044f 473e 1327 143e
000001b0: 4357 903e 2181 3bbe 8dd5 1b3e 4e94 3e3e
000001c0: 523c 5dbe 020b d2bd a6a4 26be 0d95 2c3e
000001d0: 735b fa3d 8720 eabd 88c3 3bbe 30b0 4f3e
000001e0: 7ee6 d03d 9584 f33c 5f14 bebc 1484 61be
000001f0: 5955 423d 3784 52be 617f e7bd b1d8 62be
00000200: 9fbd 50be 3142 babd 0e4a 03be 3dee 943b
00000210: 9ef0 fbbd e040 333e 8840 a7bc 8e09 103e
00000220: 2a46 463e 9fcb e73d 42b3 cfbd 5d1f 5bbd
00000230: 50fa 3d3d 7bae 543d 6fc8 5e3d 5259 b73d
00000240: ffc7 f6bd 4512 5e3d c531 e63c 220a e4bd
00000250: b599 cebd a4aa 103e cf44 0b3d cff8 7cbe
00000260: a039 5fbd e058 08be 762a 433e 69a0 79bd
00000270: fa91 06be ac36 30be b456 043e a99a ce3c
00000280: 7215 4d3e 5e19 1e3c e277 54be 6c23 18be
00000290: d0a9 8e3d c780 793d 6994 e9bd 9ee6 33be
000002a0: 0f46 92be 850d 053e 101c d3bd e5ec 3bbd
000002b0: d6e9 833e e111 0bbe dd25 ff3d 2d0f a7bd
000002c0: 6132 0e3e 218e 39be 65eb bf3d 9b44 e93c
000002d0: 573a 573e e8e8 4cbd 6727 28be 65fc 38bd
000002e0: 984e 813d b4ee 5dbe f6e3 c2bd e22e 04be
000002f0: 0ca2 11be e4eb c4bc ca2a 413d 1a6e 153e
00000300: fc16 05bc da1c 073e caa7 a5bd 9f4c dfbd
00000310: 3166 d5bc 6701 3abe 1920 0f3e b6ac 47be
00000320: db71 afbd e4d9 353d bbc2 2e3e d10d 433e
00000330: d286 b23d 8819 823d 688d c0bd 6ee4 6ebe
00000340: b8af a3bd e53c a43d 3c25 baba a9c7 bfbd
00000350: a90b 043b b216 cbbd 6955 93bd 31a6 39be
00000360: b6bd a53d 7bf8 b8bd 685b 83bc 0c06 103e
00000370: 9637 243e b2d2 b43c a873 67be f349 233e
00000380: 5093 d63c c8ae 243c d853 cc3d f04f 8dbd
00000390: bfef bd3d b340 e33d e35d d73d 4769 513e
000003a0: ac1f 23bd 48a3 ecbd 8ad6 c53d 2584 f2bb
000003b0: 8db6 e93d 7830 9abd c526 bb3d 0c49 a63b
000003c0: 238a e43d 1209 7dbd 3971 603d 3b8c 413e
000003d0: 04e6 d13c f17b 8dbe be32 4dbe 70b3 a6bd
000003e0: 4b40 e03d 0c97 e1bd 966c 02be f4ac a9bc
000003f0: f59a 9a3d 7e46 e93d 68b6 d9bd 8431 61be

bias f4 [30]
-0.16508722 -0.099816695 0.03145338 -0.13113564 0.1039031 0.020961387 0.0013352064 0.0786254
0.11065037 0.060898714 0.20353177 0.07703383 0.021579849 -0.027474143 -0.14800593 -0.06921298
0.15617411 -0.20928708 -0.1806494 0.017817317 -0.16667412 0.095184274 -0.21939577 0.15433088
0.018663565 -0.06071017 -0.05840178 -0.027804257 0.11084648 -0.13738579
00000000: a00c 29be b26c ccbd 42d5 003d 6c48 06be
00000010: 26cb d43d 37b7 ab3c 1802 af3a 5b06 a13d
00000020: a99c e23d ee70 793d a26a 503e eac3 9d3d
00000030: 39c8 b03c 7411 e1bc de8e 17be 89bf 8dbd
00000040: 1bec 1f3e 5a4f 56be 28fc 38be 9ff5 913c
00000050: 9fac 2abe f9ef c23d 49a9 60be ea08 1e3e
00000060: 55e4 983c 3aab 78bd b436 6fbd c1c5 e3bc
00000070: 7b03 e33d dcae 0cbe

weight f4 [30, 30]
-0.056388613 -0.20310755 -0.22235179 0.06730343 -0.117206216 -0.016648836 -0.1497646 0.0799835
-0.17281687 0.08650745 0.063584596 0.010457883 0.008195072 0.1812675 -0.09330294 -0.052185528
-0.05282463 -0.0010961111 -0.07996473 -0.13080847 -0.13679695 0.22940388 0.04276849 -0.06171632
-0.026954425 -0.11330324 0.08812585 -0.22356798 0.09792865 -0.088092364 0.012259869 0.09567974
0.05738906 -0.032532427 -0.034683462 0.14878632 -0.16436541 0.19723818 -0.20758857 0.09351362
-0.20139062 0.044253338 0.1167882 0.13426907 -0.15074475 0.01568341 0.23014951 -0.15019575
0.071127936 0.04227612 -0.027604125 0.018670749 0.16480365 0.14991699 -0.08101233 -0.013497385
-0.19364208 -0.02755344 0.22072029 -0.10069304 0.02777481 -0.06346121 0.036859937 0.28110757
-0.12616967 -0.16227907 -0.014851308 0.068108834 -0.14494452 -0.26302648 0.25474605 -0.1776862
-0.20220591 -0.025415445 0.0877287 -0.23725723 0.095428996 0.13138007 0.07644925 0.15663728
0.06700636 0.059873965 -0.20489095 -0.034871064 0.0011198767 0.14271419 0.05390011 -0.038819145
-0.2942515 -0.1229814 -0.22764795 -0.1424344 0.008495474 -0.18224317 -0.09507452 0.14993392
-0.06938517 0.07025154 -0.058041327 0.16251059 0.009562377 -0.0131548 0.12598304 0.25448853
0.0691442 -0.088166356 -0.20753875 -0.14100906 -0.1037343 -0.064052 -0.26390317 -0.013571121
-0.09120277 0.12290101 -0.016808113 -0.05656111 0.048242148 -0.14850932 -0.18392928 -0.091771476
0.01866046 -0.024256602 0.14801788 0.107980445 -0.09668893 -0.1472919 -0.17315744 0.09279262
0.13781904 -0.15953821 -0.10456675 -0.06365635 0.20484595 -0.047757827 -0.030913297 -0.0140721
-0.16271329 -0.20435445 0.03765213 0.1275599 -0.09715507 0.1085057 -0.17717177 -0.16476458
0.054991744 0.060178254 -0.08308824 -0.18395407 -0.083607666 0.0752339 -0.1035942 0.17705934
0.027463261 0.10338726 0.026402758 -0.098911926 0.07467034 -0.015327336 0.122466266 -0.100346275
0.1546013 -0.21802424 -0.009986924 -0.17772861 0.051289268 -0.14941527 0.12739614 0.06608683
-0.00086328806 0.15952206 0.07749987 -0.029835764 -0.05664993 0.27528915 -0.012818025 0.116252646
-0.0033175163 -0.18607867 -0.18128422 -0.18392308 -0.010497849 -0.11692297 -0.07270755 -0.017223243
-0.010715787 -0.14581923 -0.12827618 -0.07322713 0.10316083 -0.37991905 0.21893501 -0.4421868
-0.18232037 -0.20674632 0.08898255 -0.27156416 -0.119017616 -0.05583477 0.37477404 -0.019823693
-0.29329085 0.0858902 -0.11120232 -0.12765865 0.047472045 -0.010325311 0.017791662 0.1889043
-0.022316288 0.08132709 -0.20212224 -0.040644854 -0.010270452 -0.0067394567 0.06994565 0.08821961
-0.14658402 -0.12295208 -0.13485447 0.03898802 -0.15198612 0.13517986 0.005472865 0.17867492
-0.04054049 -0.038829383 0.1030052 -0.18263885 -0.04429468 -0.1851509 0.14804459 -0.08803815
-0.008707075 -0.067125395 0.23891364 -0.1531518 -0.14602505 -0.015312613 0.09550549 -0.15975152
-0.0587289 -0.26191443 0.15358618 -0.11254631 0.056214944 -0.211694 -0.0998412 -0.059235636
-0.14392304 0.07474008 -0.04126119 0.08335906 0.12512901 0.099528775 -0.025146272 -0.050977647
00000000: bff7 66bd 6dfb 4fbe 30b0 63be 61d6 893d
00000010: d009 f0bd 2463 88bc e45b 19be 64ce a33d
00000020: e8f6 30be d12a b13d a438 823d 8a57 2b3c
00000030: a044 063c 309e 393e 9d15 bfbd 7ec0 55bd
00000040: a45e 58bd 63ab 8fba 8cc4 a3bd a8f2 05be
00000050: 8014 0cbe dae8 6a3e 032e 2f3d 41ca 7cbd
00000060: 87cf dcbc 870b e8bd 537b b43d 01ef 64be
00000070: d18e c83d c569 b4bd 9edd 483c bdf3 c33d
00000080: ca10 6b3d b940 05bd 3f10 0ebd 715b 183e
00000090: 684f 28be cef8 493e 1992 54be 1284 bf3d
000000a0: 5839 4ebe fd42 353d a72e ef3d d57d 093e
000000b0: d55c 1abe 7f7a 803c 50ac 6b3e eacc 19be
000000c0: 86ab 913d ba29 2d3d 0c22 e2bc 66f3 983c
000000d0: 4ac2 283e d783 193e cbe9 a5bd 2324 5dbc
000000e0: 1c4a 46be c0b7 e1bc 8004 623e 2738 cebd
000000f0: 0088 e33c f3f7 81bd 72fa 163d 55ed 8f3e
00000100: 9f32 01be 7c2c 26be e752 73bc a57c 8b3d
00000110: 566c 14be 68ab 86be 136e 823e 5ff3 35be
00000120: 110f 4fbe 0d34 d0bc 1bab b33d 8ff3 72be
00000130: 4770 c33d 7f88 063e 6d91 9c3d 8665 203e
00000140: a13a 893d 673e 753d efce 51be f6d4 0ebd
00000150: d4c8 923a ab23 123e 5dc6 5c3d d300 1fbd
00000160: 22a8 96be acdd fbbd 8b1c 69be 53da 11be
00000170: 9a30 0b3c f49d 3abe 6eb6 c2bd 4788 193e
00000180: d019 8ebd 0ae0 8f3d bebc 6dbd 2d69 263e
00000190: 84ab 1c3c 3b87 57bc b301 013e 524c 823e
000001a0: 799b 8d3d 9090 b4bd 0a85 54be ae64 10be
000001b0: a672 d4bd b22d 83bd 511e 87be 6859 5ebc
000001c0: 85c8 babd 86b3 fb3d 2bb1 89bc 9fac 67bd
000001d0: 8f99 453d d412 18be f557 3cbe aff2 bbbd
000001e0: d2dd 983c c8b5 c6bc 0092 173e da24 dd3d
000001f0: d904 c6bd b0d3 16be 2f50 31be 0f0a be3d
00000200: 6f20 0d3e fc5d 23be 1827 d6bd 435e 82bd
00000210: 23c3 513e b69d 43bd e23d fdbc aa8e 66bc
00000220: 509e 26be 4b42 51be 1f39 1a3d 109f 023e
00000230: 3df9 c6bd 3d38 de3d 846c 35be 0cb8 28be
00000240: 063f 613d 797d 763d 2b2a aabd 755e 3cbe
00000250: 7f3a abbd 3b14 9a3d 3229 d4bd 0b4f 353e
00000260: a2fa e03c b3bc d33d 994a d83c 5692 cabd
00000270: c3ec 983d 821f 7bbc 98cf fa3d 5982 cdbd
00000280: ce4f 1e3e bf41 5fbe 32a0 23bc 7dfe 35be
00000290: b214 523d 5100 19be 2274 023e 8858 873d
000002a0: 484e 62ba c059 233e 40b8 9e3d 226a f4bc
000002b0: c209 68bd b3f2 8c3e b202 52bc de15 ee3d
000002c0: b06a 59bb 688b 3ebe 92a2 39be 5556 3cbe
000002d0: 2cff 2bbc 4f75 efbd b2e7 94bd c217 8dbc
000002e0: 4591 2fbc a351 15be d55a 03be 1bf8 95bd
000002f0: fc45 d33d c084 c2be 8030 603e 4f66 e2be
00000300: 31b2 3abe 4fb5 53be 7c3c b63d 750a 8bbe
00000310: 82bf f3bd 00b3 64bd 62e2 bf3e 4c65 a2bc
00000320: 382a 96be 34e7 af3d 0bbe e3bd f3b8 02be
00000330: 0c72 423d 7e2b 29bc d2bf 913c 2170 413e
00000340: a6d0 b6bc d18e a63d 22f9 4ebe 387b 26bd
00000350: 6645 28bc a9d6 dcbb aa3f 8f3d 7cac b43d
00000360: 1f1a 16be 4dce fbbd 4a17 0abe e7b1 1f3d
00000370: 40a2 1bbe 976c 0a3e b855 b33b 8ff6 363e
00000380: c90d 26bd 8f0b 1fbd 64f4 d23d ae05 3bbe
00000390: 576e 35bd 3398 3dbe 0099 173e 584d b4bd
000003a0: 1fa8 0ebc 0a79 89bd c7a5 743e d3d3 1cbe
000003b0: 9787 15be c1e1 7abc 6298 c33d e795 23be
000003c0: b78d 70bd a619 86be b245 1d3e ae7e e6bd
000003d0: a441 663d 50c6 58be 8b79 ccbd 11a1 72bd
000003e0: 9060 13be 5411 993d 7e01 29bd 28b8 aa3d
000003f0: d221 003e bed5 cb3d 8eff cdbc f0cd 50bd

bias f4 [30]
0.107632235 0.14751872 0.1791805 0.13040623 0.024265226 0.02754702 0.033324867 0.087959506
0.17114098 -0.079759285 0.028726881 -0.14239441 0.06686622 -0.1114578 -0.0031174265 0.045980312
-0.18014432 -0.09509737 -0.1866053 -0.16832504 0.20556825 0.15482844 0.21251813 -0.077531956
0.028557427 0.06304333 -0.0123961 -0.0725744 -0.13367538 0.18573095
00000000: 4a6e dc3d 260f 173e 187b 373e 3689 053e
00000010: dec7 c63c 4aaa e13c a87f 083d 1d24 b43d
00000020: 953f 2f3e d658 a3bd a354 eb3c d7cf 11be
00000030: 28f1 883d fd43 e4bd bd4d 4cbb da55 3c3d
00000040: c177 38be 69c2 c2bd 7615 3fbe 665d 2cbe
00000050: 7c80 523e 598b 1e3e 5a9e 593e 13c9 9ebd
00000060: 44f1 e93c dd1c 813d 0319 4bbc e3a1 94bd
00000070: 33e2 08be 4130 3e3e

weight f4 [30, 30]
0.09262211 0.14258608 -0.0910036 -0.023078468 -0.14169541 -0.0902391 -0.3048009 0.26994056
-0.10161265 0.12226059 0.053296126 -0.14174688 -0.13198148 -0.19196755 0.16777584 -0.061050948
0.06859469 -0.0049063517 0.010406735 0.11544448 -0.30342692 -0.08692638 0.0018138888 0.10975765
0.17726324 0.2377848 -0.21197002 -0.08694872 0.23929745 0.12312973 0.10961109 0.040117383
-0.0009281046 -0.20574804 0.027100654 0.023703828 0.020235866 0.12585199 -0.0073548267 -0.047725335
0.047001634 0.06263104 0.021845216 -0.021412456 -0.0006315037 0.03455228 0.055939846 -0.0027946082
-0.098911434 -0.15090364 0.037128545 -0.078612104 0.035271045 0.15617158 0.011601569 -0.054853003
0.21618177 -0.12157211 -0.037669133 -0.14050283 -0.110671654 -0.109912336 0.16837147 0.25173372
0.15066911 0.056119043 -0.076518275 0.07927153 0.1409935 0.1844991 -0.21477939 0.097273104
0.10398655 -0.19966859 0.16801828 0.088312745 -0.09895393 -0.118156284 -0.20873106 -0.18610014
0.00062263187 0.24371472 0.019240398 -0.16727182 -0.008868393 -0.088496804 -0.13601041 -0.00020457052
0.2599615 0.19842513 -0.06410828 0.026208438 -0.017455515 -0.061611004 0.092175014 -0.13792644
-0.009668714 0.15562005 0.15487301 -0.10270428 0.04035143 0.14969948 -0.029607989 0.18327095
-0.1868842 0.113563366 0.007831223 -0.06501619 -0.024357278 0.13398983 0.012530179 -0.2086176
-0.22019078 0.005773673 -0.0340329 -0.014885439 -0.043934233 0.117958814 0.09999028 -0.0005462866
-0.1722259 0.1624168 0.15519468 -0.22546971 0.04377386 -0.10643435 -0.06790022 0.13585158
-0.043200064 0.26345614 -0.042233683 -0.040912658 -0.31360057 0.16961268 -0.037554555 0.08456949
-0.16242808 -0.028720208 0.08881993 -0.19038317 -0.009906013 -0.016745307 0.08906492 -0.06035058
0.008656764 -0.01123714 0.12937869 -0.16629025 0.21120493 0.18591732 0.044615235 0.0933917
-0.20284696 0.032383986 -0.02420671 0.08756061 0.11683079 0.08077673 0.044192456 0.024573853
-0.023542698 -0.11994962 -0.037273705 -0.18734206 0.07460236 0.041750405 -0.14029095 0.09206798
-0.17395005 0.06689723 0.12208133 -0.11265675 0.10328698 0.16874507 -0.06747951 -0.01616122
0.13788226 -0.06246084 -0.03119254 0.2531854 -0.18338382 -0.23605587 0.20837913 -0.12880775
0.04381124 0.0033771289 0.04824958 -0.092599675 -0.15697625 -0.039345454 -0.18718259 0.1187962
-0.07631511 -0.06325701 -0.21209298 0.16705012 0.06617644 0.0063743843 -0.059411775 -0.09375817
0.17694059 0.007379058 0.08384243 -0.081989415 -0.18949702 0.0625359 0.110015236 -0.13327779
-0.10266323 -0.15875627 0.10940881 -0.20085174 -0.109828986 -0.13524203 -0.13080747 -0.012660287
0.20560849 -0.18108504 0.09352489 0.09401298 -0.10985939 0.22317679 0.08366594 -0.12706195
-0.19025788 -0.20956413 0.03815141 0.21548915 -0.035500657 0.08664157 0.28724185 0.0022654042
-0.1624523 -0.028970715 0.07137984 -0.28918096 0.02441306 -0.031807173 -0.15205139 0.1994557
-0.14815195 -0.10308749 -0.27103105 -0.124565594 0.09867792 -0.19438149 -0.11593411 0.016688265
-0.13319264 0.11771699 0.18114378 0.1825586 0.03373858 -0.030808017 -0.21823888 0.066514015
00000000: a9b0 bd3d 1602 123e 1860 babd 0e0f bdbc
00000010: 9a18 11be 47cf b8bd dd0e 9cbe a635 8a3e
00000020: 4b1a d0bd c363 fa3d 0a4d 5a3d 1826 11be
00000030: 2726 07be 2493 44be 6ecd 2b3e 8f10 7abd
00000040: 5f7b 8c3d 76c5 a0bb 0381 2a3c 286e ec3d
00000050: c65a 9bbe 7506 b2bd 02c0 ed3a 9ec8 e03d
00000060: 7f84 353e dc7d 733e ab0e 59be 2c12 b2bd
00000070: 640a 753e 712b fc3d c77b e03d 2052 243d
00000080: 0c4c 73ba 9daf 52be 3102 de3c 882e c23c
00000090: b0c5 a53c 58df 003e c200 f1bb a47b 43bd
000000a0: c984 403d b444 803d bdf4 b23c 2d69 afbc
000000b0: 7f8b 25ba b186 0d3d 2e21 653d bf25 37bb
000000c0: 1492 cabd 7c86 1abe 1a14 183d 62ff a0bd
000000d0: 5f78 103d 71eb 1f3e 8214 3e3c 8bad 60bd
000000e0: c15e 5d3e ccfa f8bd f34a 1abd f9df 0fbe
000000f0: d2a7 e2bd b819 e1bd 9269 2c3e 3ee3 803e
00000100: 0149 1a3e 15dd 653d 9db5 9cbd 1d59 a23d
00000110: 9a60 103e 55ed 3c3e 21ef 5bbe 1f37 c73d
00000120: e6f6 d43d ec75 4cbe fc0c 2c3e 50dd b43d
00000130: 5ca8 cabd ecfb f1bd 98bd 55be 0991 3ebe
00000140: 1e38 233a 5a90 793e 0a9e 9d3c 4e49 2bbe
00000150: bc4c 11bc d03d b5bd 5046 0bbe fb81 56b9
00000160: ac19 853e f52f 4b3e 344b 83bd 14b3 d63c
00000170: defe 8ebc d25b 7cbd 41c6 bc3d 973c 0dbe
00000180: 8769 1ebc dd5a 1f3e 0897 1e3e 9f56 d2bd
00000190: 8b47 253d d24a 193e 748c f2bc 61ab 3b3e
000001a0: 925e 3fbe e993 e83d 884e 003c 3527 85bd
000001b0: ea88 c7bc a134 093e 614b 4d3c da9f 55be
000001c0: b179 61be 1431 bd3b 1566 0bbd 0ee2 73bc
000001d0: 62f4 33bd 6494 f13d b4c7 cc3d ac34 0fba
000001e0: fd5b 30be 9750 263e 5beb 1e3e 88e1 66be
000001f0: 384c 333d 41fa d9bd 450f 8bbd ad1c 0b3e
00000200: 8df2 30bd b9e3 863e 3afd 2cbd 0894 27bd
00000210: 4190 a0be f2ae 2d3e ced2 19bd c532 ad3d
00000220: 8c53 26be a446 ebbc 39e7 b53d cef3 42be
00000230: d44c 22bc 742d 89bc ab67 b63d 2b32 77bd
00000240: 1ad5 0d3c fb1b 38bc d97b 043e fe47 2abe
00000250: 1b46 583e 1c61 3e3e 77be 363d 2644 bf3d
00000260: 1db7 4fbe 12a5 043d 264d c6bc fa52 b33d
00000270: fb44 ef3d 456e a53d 2603 353d 1b4f c93c
00000280: 9edc c0bc 25a8 f5bd 50ac 18bd 99d6 3fbe
00000290: 1fc9 983d 7902 2b3d 6ea8 0fbe 238e bc3d
000002a0: f61f 32be 6a01 893d c705 fa3d 95b8 e6bd
000002b0: 2088 d33d 82cb 2c3e b332 8abd 8964 84bc
000002c0: 0231 0d3e f0d6 7fbd 7f87 ffbc 84a1 813e
000002d0: f8c8 3bbe a1b8 71be 5761 553e 2ee6 03be
000002e0: 6a73 333d d252 5d3b 5aa1 453d e6a4 bdbd
000002f0: 62be 20be b328 21bd cbac 3fbe 6c4b f33d
00000300: 194b 9cbd e48c 81bd e72e 59be 300f 2b3e
00000310: 8387 873d 36e0 d03b c359 73bd 4904 c0bd
00000320: ea2f 353e 06cc f13b 94b5 ab3d 11ea a7bd
00000330: 820b 42be d212 803d ab4f e13d f979 08be
00000340: 1941 d2bd 0191 22be ba11 e03d 14ac 4dbe
00000350: 05ee e0bd e37c 0abe 65f2 05be 186d 4fbc
00000360: 088b 523e 5b6e 39be fa89 bf3d e189 c03d
00000370: f6fd e0bd 7588 643e 0c59 ab3d 871c 02be
00000380: f6d2 42be fb97 56be a744 1c3d 30a9 5c3e
00000390: 2369 11bd 2371 b13d 5d11 933e 2d77 143b
000003a0: e559 26be fe53 edbc 982f 923d 870f 94be
000003b0: e6fd c73c 3d48 02bd 5cb3 1bbe 1d3e 4c3e
000003c0: 25b5 17be 891f d3bd 95c4 8abe 3f1c ffbd
000003d0: a617 ca3d f10b 47be dd6e edbd d4b5 883c
000003e0: a763 08be 9b15 f13d c17d 393e a4f0 3a3e
000003f0: 7731 0a3d 1861 fcbc 037a 5fbe 8038 883d

bias f4 [30]
-0.014638227 -0.08975887 0.19442326 -0.00014536743 -0.05774591 0.15170288 -0.15631653 0.058013443
-0.07477481 0.08455557 0.08995186 0.20053515 0.11208673 -0.03173993 0.07226199 0.029313028
-0.059345208 -0.15990624 -0.03527656 0.05303828 0.027734226 -0.18097739 0.060216486 -0.008590535
0.06974971 0.22134584 -0.030690242 0.17168799 0.07894058 -0.08672925
00000000: 2dd5 6fbc 80d3 b7bd e416 473e c66d 18b9
00000010: fa86 6cbd 0058 1b3e 7111 20be 819f 6d3d
00000020: 8923 99bd 782b ad3d ae38 b83d 1659 4d3e
00000030: ba8d e53d bb01 02bd 18fe 933d e021 f03c
00000040: f613 73bd 76be 23be 277e 10bd ab3e 593d
00000050: e332 e33c 2352 39be 90a5 763d 51bf 0cbc
00000060: f0d8 8e3d 7ca8 623e 1a6a fbbc face 2f3e
00000070: 99ab a13d 1b9f b1bd

weight f4 [30, 30]
-0.002766348 0.0695281 -0.24137805 -0.117628396 -0.13068257 0.15101515 -0.1447776 0.047453895
0.14976043 -0.23035252 0.20720102 -0.046587892 -0.014135237 0.005475141 0.14394985 0.041214056
-0.14265531 0.09884114 0.1329628 -0.10753625 -0.15446623 -0.18508032 -0.20904575 0.05642478
-0.071283475 0.16960256 0.014324293 0.2156865 0.033580948 0.09860671 -0.17216304 0.137571
-0.11979187 0.15423913 0.12050074 0.034699783 0.07038094 0.2207903 0.10135542 0.06195363
0.0804693 -0.13391945 -0.12808338 0.15728578 0.024603574 -0.10359302 0.20617874 0.18340626
0.10608896 -0.15205805 -0.08009776 0.17960873 0.085177794 -0.06110009 0.0706741 -0.010308378
-0.14132816 -0.052078895 0.11592527 0.21806145 0.032425787 -0.17081578 0.15315524 -0.04840601
0.1729057 -0.14980964 -0.087824546 -0.050244134 -0.12109798 0.025710406 -0.0015795178 0.036184523
-0.029901037 -0.16157083 0.050659902 -0.1449734 0.17382462 -0.049543403 -0.042169012 0.112591155
0.0030867339 0.10570401 0.12713124 -0.00057303853 -0.16723724 -0.047138944 -0.014497729 -0.14823642
0.09852215 0.010464347 -0.06360571 0.027186368 0.034970477 0.059554525 0.06658637 0.13293053
0.0048476593 -0.16338177 -0.18257074 -0.008958023 -0.09866771 -0.010391 0.036409702 0.016567886
-0.010255124 -0.09834368 -0.0011851009 -0.1701288 0.022453146 -0.14173912 -0.13919182 0.05760699
0.16996306 0.15311281 0.02841156 0.020180255 0.018922787 0.05119324 -0.024883702 -0.14925624
0.07715424 -0.011575078 0.10880232 -0.15853831 -0.04840825 -0.081635565 0.07698849 -0.037242588
-0.15180881 0.07095183 0.012223008 -0.095681675 0.10085104 -0.09044846 0.032020055 0.0038326264
-0.009882406 0.12238814 0.059891723 0.12343514 -0.091656 0.06833415 -0.017202605 -0.039676428
0.016383823 -0.051129103 0.15078337 -0.06934637 0.14422141 0.044888273 0.16397612 0.09206844
-0.10586158 -0.17280848 -0.15540913 -0.020728568 0.028076123 0.1772238 0.036065016 0.17012063
0.03765296 0.124336764 -0.13397029 0.015098604 0.058460332 -0.08627912 -0.07857741 0.1249034
0.0057681035 0.037863072 0.12205349 0.11362399 0.026211904 -0.062778786 0.16748011 -0.027150804
-0.025920955 -0.12656666 -0.13839315 0.11813195 -0.04635307 0.07020949 -0.07900281 -0.17963497
0.06863828 -0.004477488 0.07709193 -0.023195492 -0.016892351 0.14823665 0.11543143 0.023691593
0.16659728 0.06583633 -0.17150459 -0.06035999 0.121703014 -0.012627132 -0.13719371 0.1314523
0.025479702 0.04662602 -0.0015677433 0.12245635 -0.09449268 -0.011700289 0.08637549 0.037501585
-0.18167555 0.16537441 -0.11735333 0.06803571 0.048459157 0.07536792 -0.044106968 0.020313976
-0.12580308 0.06471248 0.12869237 -0.06641954 0.071238406 0.14740297 -0.08582324 -0.079614945
-0.043620706 0.09610574 -0.1349752 -0.12597853 -0.06580247 -0.065912925 0.039770037 -0.046517827
0.1040703 0.17505889 -0.029832458 0.046357468 -0.1731705 -0.082208365 -0.050812993 -0.03186877
-0.10334271 0.030653395 0.10630238 0.038316753 0.023392962 0.14789611 0.11774787 -0.06749264
0.08049745 -0.14074348 -0.015620649 -0.10904761 -0.15802962 0.015752824 0.054984666 -0.10654323
00000000: 9e4b 35bb c064 8e3d cf2b 77be 28e7 f0bd
00000010: a7d1 05be b7a3 1a3e 9440 14be 045f 423d
00000020: cc5a 193e 88e1 6bbe 812c 543e f2d2 3ebd
00000030: 7b97 67bc d068 b33b 9767 133e 12d0 283d
00000040: 3c14 12be 396d ca3d 6627 083e f73b dcbd
00000050: 652c 1ebe b285 3dbe 1710 56be ac1d 673d
00000060: 12fd 91bd 4bac 2d3e 70b0 6a3c ecdc 5c3e
00000070: 2d8c 093d 51f2 c93d 824b 30be 6adf 0c3e
00000080: 7155 f5bd ddf0 1d3e 18c9 f63d 5c21 0e3d
00000090: e223 903d da16 623e 6e93 cf3d 17c3 7d3d
000000a0: 17cd a43d 2e22 09be 4a28 03be 860f 213e
000000b0: 6f8d c93c 9428 d4bd 8520 533e dace 3b3e
000000c0: 2b45 d93d 1bb5 1bbe 4b0a a4bd 5aeb 373e
000000d0: b271 ae3d 1744 7abd 95bd 903d 79e4 28bc
000000e0: 54b8 10be ae50 55bd 3a6a ed3d 804b 5f3e
000000f0: e7d0 043d 55ea 2ebe bad4 1c3e 6145 46bd
00000100: 310e 313e b367 19be 5bdd b3bd cbcc 4dbd
00000110: 3802 f8bd a19e d23c d307 cfba 3936 143d
00000120: 05f3 f4bc d372 25be c280 4f3d e873 14be
00000130: 15ff 313e 06ee 4abd 6ab9 2cbd 3196 e63d
00000140: cd4a 4a3b 587b d83d b12e 023e f737 16ba
00000150: 3d40 2bbe c414 41bd e287 6dbc 4acb 17be
00000160: fbc5 c93d a772 2b3c b643 82bd f2b5 de3c
00000170: 343d 0f3d 72ef 733d 6f5e 883d f11e 083e
00000180: 1dd9 9e3b 8d4d 27be d3f3 3abe acc4 12bc
00000190: 4c12 cabd 033f 2abc 5722 153d 60b9 873c
000001a0: 1c05 28bc 6968 c9bd 6355 9bba 3f36 2ebe
000001b0: a9ef b73c 0f24 11be 4d88 0ebe 4ff5 6b3d
000001c0: cc0a 2e3e 9bc9 1c3e 5cbf e83c 1051 a53c
000001d0: f603 9b3c 01b0 513d e8d8 cbbc a1d6 18be
000001e0: 0b03 9e3d 65a5 3dbc c0d3 de3d de57 22be
000001f0: bb47 46bd 8c30 a7bd 24ac 9d3d af8b 18bd
00000200: c573 1bbe 314f 913d 0343 483c c1f4 c3bd
00000210: fd8a ce3d 0b3d b9bd 7627 033d cd2c 7b3b
00000220: d1e9 21bc a2a6 fa3d 0651 753d 90cb fc3d
00000230: 24b6 bbbd c6f2 8b3d 7aec 8cbc c083 22bd
00000240: 5e37 863c c06c 51bd f566 1a3e 7805 8ebd
00000250: c7ae 133e c4dc 373d 5be9 273e 618e bc3d
00000260: f5cd d8bd b5f4 30be 9223 1fbe f5ce a9bc
00000270: e6ff e53c 287a 353e e9b8 133d 1a34 2e3e
00000280: fd39 1a3d 46a4 fe3d 822f 09be 2360 773c
00000290: 1a74 6f3d 1bb3 b0bd 31ed a0bd 5bcd ff3d
000002a0: 5c02 bd3b 4f16 1b3d 2ef7 f93d b2b3 e83d
000002b0: 59ba d63c 2a92 80bd e87f 2b3e 5d6b debc
000002c0: 2f58 d4bc b19a 01be efb6 0dbe 2aef f13d
000002d0: b7dc 3dbd fec9 8f3d 3acc a1bd 3bf2 37be
000002e0: 3a92 8c3d e4b7 92bb 60e2 9d3d 7904 bebc
000002f0: d461 8abc 59cb 173e 5067 ec3d df14 c23c
00000300: 7a98 2a3e 33d5 863d e69e 2fbe 093c 77bd
00000310: 6e3f f93d 08e2 4ebc 827c 0cbe 6f9b 063e
00000320: cfba d03c edfa 3e3d bc7c cdba 65ca fa3d
00000330: 6185 c1bd 92b2 3fbc a2e5 b03d 439b 193d
00000340: 2809 3abe e957 293e f156 f0bd 4e56 8b3d
00000350: 1c7d 463d 7f5a 9a3d 82a9 34bd 7f69 a63c
00000360: 86d2 00be fa87 843d efc7 033e f806 88bd
00000370: 71e5 913d cef0 163e 18c4 afbd 290d a3bd
00000380: a0ab 32bd 16d3 c43d f036 0abe 8400 01be
00000390: 72c3 86bd 5bfd 86bd e8e5 223d 7a89 3ebd
000003a0: cf22 d53d a342 333e 3363 f4bc 54e1 3d3d
000003b0: 9c53 31be dc5c a8bd 4921 50bd d488 02bd
000003c0: 58a5 d3bd d41c fb3c 10b5 d93d 07f2 1c3d
000003d0: 99a2 bf3c 1472 173e cc25 f13d 9539 8abd
000003e0: d9db a43d 0f1f 10be c0ed 7fbc 5a54 dfbd
000003f0: 84d2 21be 110c 813c 9a37 613d 5633 dabd

bias f4 [30]
-0.03304466 0.12636419 -0.15444112 -0.075163245 0.03453425 -0.043789513 0.043379597 -0.13720624
-0.017055085 0.14921106 -0.16108586 -0.034148756 0.03174136 0.04810083 -0.15650915 -0.1498215
-0.046903756 0.12455312 0.15525788 0.089250736 -0.13216352 -0.0016515802 0.01769581 -0.15905917
0.11985603 0.08408064 0.17328708 -0.028373057 -0.09510844 -0.09075486
00000000: d659 07bd 9d65 013e d025 1ebe 30ef 99bd
00000010: c973 0d3d a25c 33bd ceae 313d cb7f 0cbe
00000020: 1bb7 8bbc c9ca 183e b1f3 24be 91df 0bbd
00000030: 3a03 023d 6005 453d ef43 20be cf6a 19be
00000040: 271e 40bd b515 ff3d ecfb 1e3e 17c9 b63d
00000050: e055 07be d679 d8ba cef6 903c 68e0 22be
00000060: 1477 f53d 7832 ac3d 2b72 313e 9d6e e8bc
00000070: 37c8 c2bd afdd b9bd
